checkpoint.pth (torch_old, 28333 bytes, 6 tensors)

fc1.weight f4 [64, 37]
0	0x3dbeb1b6	0.093112394
1	0x3c043dc9	0.008071371
2	0xbe6dcbda	-0.23222294
3	0x3d4b4ca5	0.04963364
4	0xbf1be0ce	-0.608899
5	0xbd98d6ed	-0.07462869
6	0x3d51d996	0.051232897
7	0x3e0f824b	0.14014547
8	0x3ce45c02	0.027875904
9	0xbebc4228	-0.36769223
10	0xbd9ea2be	-0.07745884
11	0xbdf4989a	-0.11943169
12	0xb91eea20	-0.00015155273
13	0xbd92b88a	-0.07164104
14	0xbe1342aa	-0.14380899
15	0x3dc8a6c1	0.09797431
16	0xbd80aaa6	-0.062825486
17	0x3d976a86	0.073933646
18	0x3de5e985	0.11226181
19	0x3da704e4	0.0815523
20	0x3d2e8989	0.042611632
21	0x3e288f23	0.16460852
22	0x3cac9202	0.021065716
23	0x3d555b3f	0.052088972
24	0xbbd32bdc	-0.0064444374
25	0xbbcae80c	-0.006192213
26	0x3dda8e97	0.10671728
27	0xbdb008a4	-0.08595398
28	0xbb9ec0e7	-0.004844773
29	0xbe678f61	-0.22613288
30	0xbcdf59b9	-0.027264463
31	0x3dda57b5	0.1066126
32	0x3bd67962	0.0065452317
33	0xbd89032f	-0.0669006
34	0xbcb2b518	-0.021814868
35	0xbe2a3242	-0.16620734
36	0xbd81f332	-0.06345214
37	0x3e3cfd7a	0.18456069
38	0xbd096bc1	-0.033550028
39	0x3c23b1c2	0.009991111
40	0x3d61ea05	0.05515482
41	0xbe161190	-0.14655137
42	0x3d374b75	0.044749696
43	0xbe823381	-0.2542992
44	0xbd304c01	-0.043041233
45	0xbebd2226	-0.36940116
46	0xbe9ae982	-0.30256277
47	0x3d217b40	0.03942418
48	0xbd6b3542	-0.057423837
49	0x3d99cba0	0.075095415
50	0xbd530c3e	-0.051525347
51	0x3e089c6d	0.13340922
52	0x3d7ef0e3	0.062241446
53	0x3d04b8b9	0.032402728
54	0x3d200806	0.03907015
55	0xbdf0c42c	-0.11756167
56	0xbe03ea69	-0.12882389
57	0xbd9b6ef3	-0.07589521
58	0xbe1a10f3	-0.15045528
59	0xbdc43f45	-0.0958238
60	0xbdba706a	-0.091034725
61	0xbe00b55a	-0.1256918
62	0x3c82b301	0.015954496
63	0x3d4b209e	0.049591653
64	0xbdfe0292	-0.12402834
65	0xbd1adb00	-0.03780651
66	0xbe1706df	-0.14748715
67	0xbdc8f9bf	-0.0981326
68	0x3c09d73d	0.008413133
69	0x3e35f9b7	0.1777104
70	0x3db39dbd	0.087703206
71	0x3d3aa973	0.045571756
72	0xbd8e9c7d	-0.069634415
73	0x3d1d47a3	0.038398396
74	0x3e09651f	0.13417481
75	0x3e30544b	0.17219655
76	0x3e095626	0.1341177
77	0xbe3a73bb	-0.1820821
78	0xbeaaae97	-0.33336326
79	0xbf17e262	-0.5932981
80	0x3e06754d	0.13130684
81	0x3eb66e0b	0.3563083
82	0x3d4537ba	0.048148848
83	0xbf082b22	-0.53190815
84	0x3d345e9d	0.044035543
85	0xbd6c3c0e	-0.05767446
86	0x3daabdca	0.08336981
87	0xbd3368d6	-0.04380115
88	0x3ea1f542	0.3163243
89	0xbbe81e99	-0.0070837256
90	0x3da9a011	0.08282483
91	0x3dc9405a	0.09826727
92	0x3ca1c6ce	0.019748118
93	0x3d9d4c61	0.07680584
94	0xbcddbd1a	-0.02706771
95	0xbd840a1c	-0.06447241
96	0x3da318b5	0.07963697
97	0xbd09ec71	-0.033672754
98	0x3df72e83	0.12069418
99	0xbd5e49a5	-0.05426945
100	0x3e3fdeb3	0.18737297
101	0x3e31a645	0.17348583
102	0xbe49d4fc	-0.19710153
103	0xbe1f268d	-0.1554205
104	0xbeafeb2e	-0.34359115
105	0x3d80b583	0.062846206
106	0xbccf4d91	-0.025305541
107	0x3c307d67	0.010772086
108	0xbdaf7f3e	-0.085691914
109	0xbc8ac9cb	-0.016941926
110	0x3cc24002	0.023712162
111	0x3d9f6fb1	0.07784975
112	0x3e3228df	0.17398404
113	0x3e550d6d	0.20805903
114	0xbc192883	-0.009348038
115	0xbf35f02a	-0.71069586
116	0xbdd2b713	-0.10288825
117	0x3c331b58	0.010931812
118	0x3d589835	0.05287953
119	0x3de2a653	0.1106688
120	0x3df6bb2e	0.120474204
121	0x3e10104d	0.14068718
122	0xbd307178	-0.043076962
123	0xbd06a155	-0.032868702
124	0xbe9aaa06	-0.30207843
125	0xbd0b9823	-0.034080636
126	0x3df3d3d5	0.11905638
127	0xbed82766	-0.4221756
128	0xbd5b8a43	-0.053598654
129	0xbe86a8d1	-0.26300672
130	0xbd7014e8	-0.058613688
131	0x3e2a5131	0.16632535
132	0xbe07114a	-0.13190189
133	0xbe288555	-0.16457112
134	0x3d4e2990	0.050332606
135	0xbd2a6ee9	-0.04160968
136	0xbebfd4a4	-0.3746692
137	0xbd98000d	-0.07421885
138	0x3e30c406	0.17262277
139	0x3e676d77	0.22600351
140	0x3ea3bd9b	0.31980595
141	0x3e348c47	0.17631637
142	0xbeaa5f81	-0.3327599
143	0xbe248c4d	-0.16069146
144	0xbd454879	-0.04816482
145	0xbf98f598	-1.1949949
146	0xb9411b75	-0.00018416143
147	0xbc832d42	-0.016012792
148	0xbdb63e02	-0.08898546
149	0xbda23ac4	-0.07921365
150	0xbd84fe36	-0.064937994
151	0xbdfcd6a2	-0.123456255
152	0xbd767556	-0.060170494
153	0x3eb014a9	0.34390762
154	0xbef7769d	-0.48332682
155	0xbf0610de	-0.5236949
156	0xbeccefc5	-0.4002668
157	0xbfe7814f	-1.8086337
158	0xbd766b4c	-0.06016092
159	0xbd60479f	-0.054755803
160	0xbd858335	-0.065191664
161	0x3d283628	0.041067272
162	0xbd8b2ba7	-0.067954354
163	0xbdab57a3	-0.08366325
164	0x3c8de4ea	0.017321069
165	0x3c458a1d	0.012056855
166	0x3d11ca5c	0.035593376
167	0x3dee7bd5	0.11644713
168	0xbe037dbc	-0.12840933
169	0xbd0939eb	-0.0335025
170	0x3da1dc75	0.07903377
171	0x3dd40c88	0.10353953
172	0x3e4bd1d5	0.19904263
173	0x3b3bd843	0.0028662838
174	0xbd6cdb93	-0.05782659
175	0x3da3c651	0.0799681
176	0x3e163059	0.1466688
177	0x3e83413a	0.256357
178	0x3dd0cff2	0.101959124
179	0x3d983e25	0.07433728
180	0x3da750ea	0.0816973
181	0x3d87a1f4	0.06622687
182	0x3dcf4947	0.101213984
183	0x3c0be1c7	0.008537716
184	0x3bd6af8d	0.006551689
185	0x3d29a644	0.04141833
186	0x3c5c3beb	0.01344202
187	0xbcd25d52	-0.025679264
188	0x3cb7f6ec	0.022456609
189	0x3e191cc6	0.14952382
190	0x3eceb8f4	0.40375483
191	0xbf08006b	-0.5312564
192	0xbea56b90	-0.32308626
193	0xbe8ccbdc	-0.27499282
194	0xbfe00d88	-1.750413
195	0xbce3db9e	-0.027814683
196	0xbd94eb0f	-0.07271396
197	0x3bdb98e0	0.0067015737
198	0xbc4052f4	-0.011738528
199	0x3e1b2379	0.1515025
200	0x3d44df6e	0.04806464
201	0x3cfbf777	0.030757649
202	0x3b4e7c3d	0.0031507157
203	0xbd025989	-0.03182367
204	0xbdc488b1	-0.09596384
205	0x3e065465	0.13118131
206	0x3dfcb3bf	0.12338971
207	0x3d3d5ee0	0.046233058
208	0x3dcc6f18	0.09982127
209	0x3e555bc8	0.20835793
210	0xbcb4a531	-0.022051426
211	0x3d39d11a	0.04536543
212	0x3d3180e7	0.04333582
213	0x3c470541	0.012147249
214	0x3e0f4e58	0.1399473
215	0x3c86d131	0.016457172
216	0xbdcddcdc	-0.10051891
217	0x3c88dfa1	0.016708197
218	0x3db9f4bb	0.09079882
219	0xbbd708e6	-0.00656234
220	0x3d10856e	0.0352835
221	0x3c417f9f	0.011810212
222	0x3e7d3428	0.24726927
223	0xbec566c7	-0.38554975
224	0xbe10c202	-0.14136508
225	0xbe4f7659	-0.2025999
226	0xbf04128f	-0.5159082
227	0xbcf44174	-0.029816367
228	0xbde0f14e	-0.10983525
229	0xbe95759c	-0.2919129
230	0x3db49052	0.088165894
231	0x3ea6af74	0.32555735
232	0xbe315c44	-0.17320353
233	0x3e06c06f	0.13159345
234	0x3e344095	0.17602761
235	0xbe3badc2	-0.18328002
236	0xbdd0ea7a	-0.10200973
237	0xbe619fb2	-0.22033575
238	0xbe6d90de	-0.23199794
239	0x3db162de	0.086614355
240	0xbda6aa36	-0.08137934
241	0xbd21a89d	-0.039467443
242	0xbd01a975	-0.031655747
243	0xbe7120af	-0.23547624
244	0x3dd81711	0.105512746
245	0xbe8fc66b	-0.28081068
246	0xbde87d82	-0.11352064
247	0xbf119930	-0.5687437
248	0x3d7ccc1a	0.061718084
249	0x3d562a13	0.05228622
250	0xbe9903c2	-0.2988568
251	0x3d7cd10c	0.0617228
252	0x3d414d82	0.047193058
253	0xbe9d2865	-0.3069488
254	0xbe2a672c	-0.1664092
255	0x3dfd173c	0.12357947

fc1.bias f4 [64]
0	0x3dfa48d0	0.12220919
1	0xbd850c1f	-0.064964525
2	0xbda3e80f	-0.08003246
3	0xbcf6d29a	-0.03012972
4	0x3e6d54a1	0.23176815
5	0xbbfec340	-0.0077747405
6	0xbe101fc0	-0.14074612
7	0x3d08073b	0.03321002
8	0xbd3bd7f8	-0.04586026
9	0xbe47c766	-0.19509658
10	0x3e503269	0.2033173
11	0x3e209ada	0.15684071
12	0x3e159187	0.14606296
13	0x3d82b099	0.063813396
14	0xbd1d3386	-0.038379215
15	0xbbb0b74b	-0.005392944
16	0x3bd9cea4	0.006646948
17	0xbdc836b8	-0.09776062
18	0xbb640eb9	-0.0034798814
19	0xbe49b60b	-0.1969835
20	0xbde5dcc4	-0.11223748
21	0x3d183642	0.03716112
22	0x3cc611d5	0.024178425
23	0xbdce6e98	-0.10079688
24	0xbe0e93d2	-0.13923576
25	0x3e32e6f8	0.1747092
26	0x3c7821f5	0.015144815
27	0xbe595ead	-0.21227522
28	0x3e210df1	0.15727974
29	0x3e52be24	0.20580345
30	0xbb90cb61	-0.004418776
31	0xbd95bbf7	-0.07311242
32	0x3e15f267	0.1464325
33	0xbc9d1b22	-0.019177977
34	0xbdbbcd39	-0.091700025
35	0x3d09a6c8	0.03360632
36	0x3c9304cd	0.017946625
37	0x3d285f39	0.041106436
38	0xbcba32a1	-0.02272922
39	0xbe23a29a	-0.15979996
40	0xbe2d6397	-0.16932522
41	0xbdb96515	-0.09052483
42	0xbc1813ef	-0.009282096
43	0x3e1f0038	0.15527427
44	0x3cd58a56	0.02606694
45	0xbd9fc8fb	-0.07802006
46	0x3dc46cf7	0.09591096
47	0xbdcbba41	-0.099476345
48	0xbd60d06d	-0.05488627
49	0x3dbd1f71	0.092345126
50	0xbe5d5704	-0.21615225
51	0x3d203c61	0.03912008
52	0xbcf3a1f4	-0.029740311
53	0xbe0238f3	-0.12717037
54	0xbe461b74	-0.1934641
55	0xbbebc0d3	-0.0071946173
56	0x3e401356	0.18757376
57	0xbd421eb8	-0.047392577
58	0xbd61af6d	-0.05509894
59	0xbdba3c56	-0.090935394
60	0x38afd0e0	8.383556e-05
61	0x3d525349	0.05134896
62	0x3dcf65a2	0.10126807
63	0x3e0f8245	0.14014538

fc2.weight f4 [64, 64]
0	0x3d95463c	0.07288787
1	0x3db5c447	0.088753276
2	0x3e2fb621	0.1715932
3	0x3d481054	0.048843697
4	0xbee98f91	-0.45617345
5	0xbe7181ff	-0.23584746
6	0xbec3ff11	-0.38280538
7	0x3dc6e150	0.09710944
8	0x3cf4519c	0.02982407
9	0x3e0d48c2	0.13797286
10	0x3e45a13e	0.1929979
11	0x3d67ecf1	0.05662245
12	0xbe56ce20	-0.20977068
13	0x3eaa5376	0.332668
14	0xbe7222fc	-0.23646158
15	0x3e02c953	0.12772112
16	0xbe6e49f8	-0.23270404
17	0xbddcf5d5	-0.10789076
18	0xbdb365b1	-0.087596305
19	0xbdcf36c3	-0.10117867
20	0xbdd7ef89	-0.105437346
21	0x3e12c31b	0.1433224
22	0x3d0b0fdf	0.033950683
23	0x3dcc90ab	0.09988531
24	0xbde90bfe	-0.113792405
25	0xbca64bf7	-0.020299895
26	0xbe1cd61d	-0.15316053
27	0xbe236bb6	-0.15959057
28	0xbe311c3d	-0.17295928
29	0xbe6bfe91	-0.23046328
30	0x3e5e5510	0.21712136
31	0xbbd53ca7	-0.0065074745
32	0x3e858797	0.2608001
33	0xbe4bdf87	-0.19909488
34	0xbe995df8	-0.29954505
35	0xbd51b247	-0.05119541
36	0xbe9b11a8	-0.30286908
37	0xbe356214	-0.17713195
38	0xbeb52108	-0.35376763
39	0xbeb005de	-0.34379476
40	0xbeb24b55	-0.348231
41	0xbd33f8cf	-0.043938454
42	0x3986bc4d	0.00025698767
43	0x3ea085e9	0.31352165
44	0xbd8c02f7	-0.06836503
45	0xbe77ff95	-0.2421859
46	0xbe5bf1b3	-0.2147892
47	0x3d6d365d	0.057913173
48	0xbe4ab903	-0.19797139
49	0xbef3a6a9	-0.4758809
50	0x3d1405ad	0.036138225
51	0xbb8ea02e	-0.004352591
52	0xbe3a96cf	-0.18221591
53	0xbe08171c	-0.13290066
54	0x3d8d1af2	0.06889905
55	0xbe52976e	-0.20565578
56	0xbe2ed86e	-0.17074749
57	0xbe862539	-0.26200274
58	0xbe089a4d	-0.13340111
59	0x3e000fb6	0.12505993
60	0x3ebe2d4f	0.37143943
61	0x3ef749eb	0.48298582
62	0xbe8de692	-0.27714974
63	0x3dce403f	0.10070848
64	0xbe607fba	-0.21923724
65	0xbb87ddf3	-0.0041463315
66	0xbe979d32	-0.29612118
67	0x3df20604	0.11817554
68	0x3e8f914e	0.28040546
69	0x3e8452ac	0.25844324
70	0x3cce25c6	0.025164496
71	0x3e55e85a	0.20889416
72	0xbe1548d2	-0.1457856
73	0xbea49b8e	-0.3214993
74	0xbe4ad1fe	-0.19806668
75	0x3e281cc4	0.16417223
76	0xbdf834b1	-0.12119425
77	0xbc875cf8	-0.016523823
78	0xbd9a90dd	-0.07547162
79	0x3c7c666f	0.015405281
80	0xbdae73b1	-0.0851816
81	0xbd1ba858	-0.038002342
82	0x3c36211e	0.011116294
83	0x3c1ca862	0.00956163
84	0x3dbb7d91	0.09154809
85	0xbe70580d	-0.23471089
86	0xbd8fc997	-0.07020872
87	0xbdd540d9	-0.10412759
88	0x3db78551	0.08960975
89	0xbdb596e1	-0.088666685
90	0xbe64eb01	-0.22355272
91	0xbe411b80	-0.18858147
92	0x3e4a0dcb	0.19731824
93	0x3c439828	0.011938132
94	0x3e5ec280	0.21753883
95	0xbe2911b4	-0.1651066
96	0xbe688a26	-0.2270895
97	0x3dc89e72	0.09795846
98	0xbde19fbf	-0.11016797
99	0xbe596a80	-0.21232033
100	0x3d477776	0.04869791
101	0xbebc79b4	-0.36811602
102	0xbdd2cabc	-0.10292575
103	0xbe05d615	-0.13069947
104	0xbd753b0c	-0.059870765
105	0x3e1b05f2	0.15138987
106	0xbd9e314a	-0.07724245
107	0xbe010b83	-0.12602048
108	0x3e24537e	0.16047475
109	0xbe116950	-0.1420033
110	0xbdc6fe36	-0.09716456
111	0xbda2229e	-0.07916759
112	0x3d1c0f12	0.03810031
113	0xbd0579e0	-0.032586932
114	0xbe52df8c	-0.20593089
115	0x3e0dd8d6	0.13852248
116	0xbc897f41	-0.016784312
117	0xbcde3c74	-0.027128436
118	0x3c16fbfa	0.009215349
119	0xbd56375e	-0.052298896
120	0x3e1980ed	0.14990588
121	0xbd0a08c2	-0.03369976
122	0xbd1e74f1	-0.038685743
123	0x3da66a64	0.08125761
124	0xbe64afed	-0.22332735
125	0x3b9c43a1	0.004768804
126	0x3c95a56f	0.018267361
127	0xbe9577c5	-0.2919294
128	0xbcbf4009	-0.023345964
129	0xbdc9f03c	-0.09860274
130	0x3d7008f7	0.0586023
131	0x3b71f540	0.0036919862
132	0xbcce35bc	-0.025172107
133	0xbd923bc8	-0.071403086
134	0xbe76a312	-0.24085644
135	0xbd0d2eac	-0.034468338
136	0x3e3da1a2	0.1851869
137	0x3d6fdee7	0.058562186
138	0x3d8851fd	0.06656263
139	0xbe1d3535	-0.15352328
140	0x3e7e11e1	0.24811508
141	0xbd1256dc	-0.035727367
142	0xbb481dd4	-0.0030535357
143	0xbb472015	-0.0030384113
144	0xbda42e19	-0.08016605
145	0xbd9a34e4	-0.07529619
146	0xbb492ddf	-0.0030697507
147	0xbdc404fe	-0.09571265
148	0xbd699f96	-0.05703696
149	0xbe3f75e9	-0.18697323
150	0xbd932ef2	-0.071866885
151	0x3dc92bd6	0.09822814
152	0xbe3c943d	-0.18415923
153	0x3e874196	0.26417226
154	0x3e48a70b	0.19594972
155	0x3d64f474	0.05589719
156	0xbbda11db	-0.0066549606
157	0x3e1adb39	0.1512269
158	0x3eae720c	0.34071386
159	0x3d43dc85	0.047817726
160	0x3b400010	0.0029296912
161	0xbd9e726b	-0.07736667
162	0xbd8d7c5b	-0.069084845
163	0x3e433949	0.19064821
164	0x3d3de401	0.04636002
165	0xbed5b3d0	-0.4173875
166	0x3eaf569a	0.3424576
167	0xbddaf939	-0.10692067
168	0x3df26f96	0.118376896
169	0xbeac5c47	-0.33664152
170	0xbd748685	-0.0596986
171	0xbe690191	-0.22754504
172	0x3d3511a2	0.04420627
173	0x3cd94526	0.02652223
174	0x3d457aa6	0.04821267
175	0xbd055fcf	-0.032562073
176	0x3c9c2bad	0.019063795
177	0xbd96a9b3	-0.07356586
178	0x3dc86bbe	0.09786175
179	0xbdca207d	-0.09869478
180	0x3cc3575d	0.023845369
181	0x3da08082	0.07837011
182	0xbd771027	-0.06031814
183	0x3dbad6cc	0.091230005
184	0x3d0d9ae4	0.034571543
185	0xbe38c701	-0.18044664
186	0x3efc6557	0.49296066
187	0x3e42e969	0.19034351
188	0xbe3e518a	-0.18585792
189	0xbe664321	-0.22486545
190	0xbd23aefc	-0.0399618
191	0xbc04ffa0	-0.008117586
192	0x3dd5b4f5	0.104349054
193	0x3d348194	0.044068888
194	0x3e689b62	0.22715524
195	0xbdc05870	-0.09391868
196	0x3d919300	0.07108116
197	0xbd828060	-0.06372142
198	0xbe1995a7	-0.14998494
199	0xbe12a348	-0.143201
200	0xbdbe5f27	-0.092954926
201	0x3c853f40	0.016265512
202	0xbe49a574	-0.19692022
203	0x3db5424b	0.08850535
204	0x3e2602de	0.16212031
205	0x3d3361f9	0.043794606
206	0xbe99d9ee	-0.3004908
207	0xbe91226b	-0.2834657
208	0x3dbba678	0.09162611
209	0x3e1a9c4d	0.15098687
210	0xbc2a2673	-0.010385144
211	0x3d7fba3a	0.06243346
212	0xbdba1c69	-0.0908745
213	0x3e32dd9d	0.17467351
214	0xbdb708f7	-0.08937257
215	0x3de10a8c	0.1098834
216	0x3e10324a	0.14081684
217	0xbe86bf66	-0.263179
218	0x3e397457	0.18110786
219	0x3e0de8bc	0.13858312
220	0x3e358147	0.17725097
221	0x3d32f260	0.043688178
222	0xbc4b7992	-0.012419121
223	0xbdb0f3d9	-0.0864026
224	0xbda67c6a	-0.08129199
225	0xbdde0d4f	-0.10842382
226	0x3e11f107	0.14252101
227	0x3e3cf445	0.18452556
228	0xbd3ff359	-0.046862934
229	0x3e4b2d27	0.19841443
230	0x3eaada06	0.33369464
231	0xbdca00df	-0.098634474
232	0x3c59c287	0.013291008
233	0xbd76933b	-0.060199004
234	0xbdc80f85	-0.09768585
235	0x3cb171cb	0.021660706
236	0xbda6c809	-0.081436224
237	0x3e3c5958	0.18393457
238	0x3bbaa328	0.0056957193
239	0x3cf729c0	0.030171275
240	0xbdd90ca9	-0.10598118
241	0x3e13f8e7	0.14450417
242	0xbe1c2309	-0.1524774
243	0xbe2ced3a	-0.1688737
244	0xbdcbd6ba	-0.09953065
245	0x3de58318	0.11206645
246	0xbe722410	-0.23646569
247	0x3e7d7a05	0.24753578
248	0xbe81d00a	-0.25354034
249	0xbe8b07ec	-0.2715448
250	0x3d7983fc	0.060916886
251	0x3dece4a2	0.11567046
252	0x3d23b40d	0.03996663
253	0x3c7d2f51	0.015453176
254	0xbe6224a2	-0.22084287
255	0xbca3331e	-0.019921836

fc2.bias f4 [64]
0	0x3b284d4c	0.0025680838
1	0xbe02cdd2	-0.12773827
2	0x3df6ce7c	0.120511025
3	0xbba47878	-0.005019244
4	0x3e4750f6	0.19464478
5	0xbdc507c4	-0.09620622
6	0xbc5fd43b	-0.0136614395
7	0xbd75bad6	-0.059992634
8	0x3d8f2a03	0.06990435
9	0x3ede5e9d	0.4343156
10	0xbd9e8452	-0.07740082
11	0x3e677e84	0.22606856
12	0x3e32341c	0.1740269
13	0xbdbba178	-0.09161657
14	0xbdbb3772	-0.09141435
15	0x3e50e19c	0.20398563
16	0x3d747c4b	0.059688848
17	0x3d97201f	0.073791735
18	0x3d01f6f8	0.03172967
19	0x3e30153e	0.17195603
20	0x3e7fab33	0.24967651
21	0x3f019688	0.5062032
22	0xbdd8f72a	-0.10594018
23	0xbe0dac1d	-0.13835187
24	0xbdf5e966	-0.12007408
25	0xbe11723f	-0.14203738
26	0x3d4f6a19	0.050638292
27	0x3b34b7fd	0.0027575486
28	0x3ca33908	0.019924656
29	0x3e9ed0c0	0.3101864
30	0xbca04e22	-0.019568507
31	0xbd131647	-0.035909917
32	0xbd10c3cf	-0.035342988
33	0x3dbb07ba	0.09132333
34	0x3d81653c	0.06318137
35	0x3c9db0ff	0.019249437
36	0xbdff283e	-0.124588475
37	0xbb7c8e53	-0.003853698
38	0x3e02b53e	0.12764451
39	0x3d64274d	0.055701543
40	0xbe208d15	-0.15678819
41	0x3ef4fe6f	0.47850367
42	0x3eb410f8	0.35169196
43	0xbdd4de69	-0.10393984
44	0x3de231a7	0.11044627
45	0xbccb698b	-0.0248306
46	0xbc277b05	-0.010222201
47	0xbdee8fae	-0.116484985
48	0x3c349f31	0.011024282
49	0xbdf1adfe	-0.118007645
50	0xbe446a21	-0.1918111
51	0x3eb77ac1	0.3583584
52	0x3cf7e7bd	0.030261869
53	0xbbc490f6	-0.005998726
54	0x3e894398	0.26809382
55	0xbdc8480b	-0.09779366
56	0xbe600c51	-0.21879698
57	0xbe147613	-0.14498167
58	0x3d932270	0.07184303
59	0xbe3e5f92	-0.18591145
60	0xbc3c2a3c	-0.011484679
61	0x3ea2e271	0.31813386
62	0x3e127c63	0.14305262
63	0xbe12c8ee	-0.14334461

fc3.weight f4 [4, 64]
0	0x3f25a205	0.6470035
1	0xbd443639	-0.047903273
2	0x3e15252b	0.1456496
3	0xbdf615a0	-0.120158434
4	0x3e3c6e77	0.18401514
5	0x3ea076b0	0.3134055
6	0x3d400301	0.046877865
7	0xbe54bbf7	-0.20774828
8	0x3d610f4d	0.054946233
9	0x3dfcfd2d	0.12352977
10	0xbee6f850	-0.45111322
11	0x3eacb9e4	0.33735573
12	0x3da68de2	0.08132531
13	0x3dceca88	0.100972235
14	0xbd1c5030	-0.03816241
15	0x3d07e0ff	0.033173557
16	0x3dd2414f	0.10266363
17	0x3e90bcb7	0.28268978
18	0x3e32d167	0.17462693
19	0x3e32417b	0.17407791
20	0x3de217c7	0.110396914
21	0x3e735ca9	0.23765816
22	0xbda384b7	-0.07984298
23	0xbdc2689a	-0.094926074
24	0x3e5c34ca	0.21504512
25	0xbe52af28	-0.2057463
26	0xbe4a2840	-0.19741917
27	0xbeb94d9c	-0.36192024
28	0x3ebcaada	0.368491
29	0x3e05efda	0.13079777
30	0xbe38cbc4	-0.1804648
31	0x3d976879	0.073929735
32	0x3e90077c	0.2813071
33	0x3e5eec83	0.2176991
34	0x3ceb4c17	0.028722806
35	0x3e71c360	0.23609686
36	0x3dab821c	0.08374426
37	0xbdb296fc	-0.08720204
38	0x3e6ab750	0.2292149
39	0x3e895278	0.2682073
40	0x3d8c4634	0.06849328
41	0x3e0a3918	0.13498342
42	0x3dd775f7	0.10520547
43	0xbdfd6acf	-0.12373888
44	0x3e413ada	0.18870106
45	0x3e06dec5	0.13170917
46	0x3cae28db	0.021259716
47	0x3ec64eda	0.38732034
48	0xbe8a894e	-0.2705788
49	0x3e922c9a	0.28549653
50	0xbe499498	-0.1968559
51	0x3e8e9b16	0.27852696
52	0xbd3199e0	-0.043359637
53	0x3e9236ea	0.2855752
54	0x3de67dd7	0.11254471
55	0xbdc607ec	-0.0966948
56	0xbe92cdae	-0.28672546
57	0xbc82b827	-0.015956951
58	0x3e3b008f	0.18261932
59	0xbe3daf37	-0.1852387
60	0xbe22ef3b	-0.15911572
61	0x3e369339	0.17829598
62	0xbc178291	-0.009247438
63	0xbd868793	-0.065688275
64	0x3f052ccd	0.52021486
65	0x3d0a4bfb	0.033763867
66	0x3e0ef40a	0.13960281
67	0x3c32c837	0.010911993
68	0x3e85bd38	0.26120925
69	0x3ec7bf1f	0.39013
70	0x3dbdcc79	0.09267516
71	0xbe0f39d5	-0.13986905
72	0xbdcfe085	-0.101502456
73	0x3de14864	0.110001355
74	0x3e193073	0.14959888
75	0x3e692739	0.22768869
76	0x3d9ef2d2	0.07761158
77	0xbd864304	-0.06555751
78	0xbca5de60	-0.020247638
79	0x3e00cd47	0.12578307
80	0x3de8e55e	0.11371873
81	0x3e6c42c3	0.23072343
82	0x3e66f993	0.22556143
83	0x3e3803c5	0.17970188
84	0x3df33054	0.11874452
85	0x3e879639	0.26481798
86	0xbb349f35	-0.0027560715
87	0xbda84248	-0.08215767
88	0x3f21be23	0.6318075
89	0xbe0ce707	-0.13760005
90	0x3c803de1	0.015654506
91	0x3dcb488d	0.09925947
92	0x3eab9146	0.33509272
93	0x3e3465c9	0.17616953
94	0xbd17f07d	-0.037094582
95	0x3e540924	0.20706612
96	0x3dccee66	0.100064084
97	0x3e72d95c	0.23715729
98	0x3e3968f5	0.18106444
99	0x3ec30303	0.38088235
100	0xbda96e21	-0.082729585
101	0x3cb39aa0	0.021924317
102	0x3e189d41	0.14903738
103	0x3f1b7d36	0.6073793
104	0x3df3b4f0	0.118997455
105	0x3e32c58b	0.17458169
106	0x3d6a7e6b	0.057249468
107	0xbe1e4be3	-0.15458636
108	0x3e0cd3e1	0.137527
109	0x3e4948c3	0.19656663
110	0x3d13def7	0.036101308
111	0x3ee826bd	0.45342055
112	0xbe1340dc	-0.1438021
113	0x3ea90083	0.33008203
114	0xbe34b8cc	-0.1764862
115	0x3e55da44	0.20884043
116	0x3e1bec45	0.15226848
117	0x3eaaa344	0.33327687
118	0x3dc7c0a1	0.09753538
119	0x3dd5f088	0.10446268
120	0xbe21dc7a	-0.15806761
121	0xbd232667	-0.039831545
122	0x3dfcf092	0.12350573
123	0xbeaa8e55	-0.33311716
124	0xbe39ff1c	-0.18163723
125	0x3d1da81a	0.038490392
126	0xbec1fe39	-0.3788927
127	0xbe5c0a8e	-0.21488401
128	0x3ebd726b	0.37001356
129	0x3ec9dba1	0.39425376
130	0x3e9a2794	0.3010832
131	0x3e3c08c0	0.18362713
132	0x3e08746d	0.13325663
133	0x3e0b7fd2	0.13622978
134	0x3e390932	0.18069914
135	0xbd98eecd	-0.07467423
136	0xbd3ed803	-0.046592724
137	0x3e1a1e81	0.15050699
138	0xbed44391	-0.414578
139	0x3e4560d7	0.19275223
140	0x3d8b6569	0.06806452
141	0xbe1b0659	-0.1513914
142	0xbd327f15	-0.043578226
143	0x3e2cc503	0.16872029
144	0xbe890329	-0.26760224
145	0x3db56d24	0.088587075
146	0x3b677e67	0.0035323144
147	0xbd7ab87f	-0.061211105
148	0x3d85e426	0.065376565
149	0x3e51bd8e	0.20482466
150	0xbe575d98	-0.21031797
151	0x3e6785a6	0.22609577
152	0x3f0c56b6	0.5481981
153	0xbe0bda61	-0.13657524
154	0xbe9ddc5d	-0.30832186
155	0x3b2848e9	0.0025678223
156	0x3e98d28a	0.2984813
157	0x3e5f56a1	0.2181039
158	0xbe0537da	-0.13009587
159	0xbc82d24e	-0.015969422
160	0xbd270321	-0.04077447
161	0x3e9d19fd	0.3068389
162	0x3e2bffe4	0.16796833
163	0x3f14046a	0.57819235
164	0xbe3173f9	-0.17329396
165	0x3dd352d3	0.10318532
166	0x3e8ede3e	0.27903932
167	0xbe3aba70	-0.18235183
168	0x3d44cc8a	0.048046626
169	0x3e49ef07	0.19720088
170	0x3e103bf8	0.14085376
171	0x3dbd5f15	0.09246651
172	0x3e3ae8b6	0.18252835
173	0x3e4f1881	0.20224191
174	0x3e0d2494	0.13783485
175	0x3f3b1438	0.73077726
176	0xbe82bbc7	-0.25533888
177	0x3e559c85	0.20860489
178	0xbe4af708	-0.19820797
179	0x3e9e1b25	0.30880085
180	0xbe7959c4	-0.24350649
181	0x3e88fa2e	0.26753372
182	0x3cfed7cc	0.03110876
183	0x3d9d404d	0.0767828
184	0xbe701cd1	-0.23448493
185	0xbc9cdd3f	-0.019148467
186	0x3eb89db5	0.3605782
187	0xbeb5c9f0	-0.3550563
188	0xbe944c9c	-0.28964698
189	0x3e299797	0.16561733
190	0xbd0d4f20	-0.034499288
191	0xbeb3ceaf	-0.35118625
192	0x3f2d0460	0.675848
193	0x3edf9472	0.43667942
194	0x3d415e02	0.047208793
195	0xbeb816cd	-0.35954896
196	0xbda7bcb3	-0.081902884
197	0x3f13f8c2	0.5780145
198	0xbeeb99ab	-0.46015677
199	0x3d0a0e00	0.033704758
200	0x3cde17a7	0.027110888
201	0x3e4d95be	0.20076653
202	0xbe1db3ae	-0.15400574
203	0x3d21730c	0.039416358
204	0x3e128db9	0.14311875
205	0xbe0110a0	-0.12603998
206	0x3d72be00	0.05926323
207	0x3e0ee52d	0.13954611
208	0x3ea999b2	0.33125073
209	0x3e1532c5	0.14570148
210	0x3e7e5dbf	0.24840449
211	0x3dfcbbaa	0.123404816
212	0x3d020460	0.031742454
213	0x3e6161aa	0.22009912
214	0xbebf2ba9	-0.37337998
215	0x3d739031	0.059463684
216	0xbd9f1a2a	-0.07768662
217	0xbe381083	-0.17975049
218	0xbac31b36	-0.0014885429
219	0x3e8f7a9e	0.28023237
220	0x3e9985ea	0.2998498
221	0x3d4d1f01	0.050078396
222	0x3dfe9796	0.124312565
223	0x3dca2677	0.09870618
224	0x3e127532	0.14302519
225	0x3e8ab30c	0.27089727
226	0x3d33f959	0.04393897
227	0xbd1f6191	-0.038911406
228	0xbec57c1e	-0.38571256
229	0x3e33d6cf	0.17562412
230	0x3e598468	0.21241915
231	0x3f5a023e	0.8515967
232	0xbdc95440	-0.098305225
233	0x3e56108d	0.20904751
234	0x3e1dbced	0.154041
235	0xbee767ea	-0.45196468
236	0x3e7eac3c	0.2487039
237	0x3e294d42	0.16533378
238	0x3e528057	0.2055677
239	0x3ea6be39	0.32567003
240	0xbea0542b	-0.31314215
241	0x3e5efb88	0.21775639
242	0x3be84069	0.0070877564
243	0x3e9e67d2	0.30938584
244	0xbf0ea220	-0.55716133
245	0x3eb90a3c	0.3614062
246	0x3e0d21ac	0.13782376
247	0x3e36db39	0.17857064
248	0xbdfea252	-0.12433304
249	0xbd9732b8	-0.07382721
250	0xbeb3e6a7	-0.3513691
251	0xbe888ac5	-0.26668373
252	0xbe864526	-0.2622463
253	0x3d80d557	0.06290691
254	0xbebb1d4d	-0.36545792
255	0xbafeee78	-0.0019449731

fc3.bias f4 [4]
0	0x3e99e96c	0.300609
1	0x3e79c563	0.24391703
2	0x3e2b0df2	0.16704538
3	0x3e4f6c55	0.20256169
