checkpoint.pth (torch_old, 22177 bytes, 7 tensors)

state_value.0.weight f4 [64, 37]
000000 5f 15 b5 bd d9 e5 d9 3c 59 a9 5b bc 02 49 56 be
       -0.08841967 0.026598858 -0.013407075 -0.20926288
000010 d9 f3 fe bd ea 6d aa be a3 d8 04 3e 08 cf c7 3d
       -0.12448854 -0.33286983 0.12973265 0.09756285
000020 1b af 0c bd 81 a4 9c be c1 05 d5 bd f2 c6 bc bd
       -0.03434668 -0.30594257 -0.10401488 -0.09217633
000030 52 6b 5e bd 65 7e c4 3c 2c 8e b9 3d 74 1c ed be
       -0.054301567 0.02398605 0.0906032 -0.4631077
000040 8d 75 1a 3e b5 25 15 3e 42 b0 13 be bb 98 16 bf
       0.15083905 0.14565165 -0.14422706 -0.588268
000050 83 d9 7b b8 84 46 e1 3d 89 39 c8 3c 68 60 e0 3d
       -6.0045637e-05 0.10999778 0.024441497 0.10955888
000060 c3 86 ca 3d 75 62 91 bd 02 aa f9 3d 12 5c 32 bc
       0.09888985 -0.07098857 0.121906295 -0.010886209
000070 5e 5d 1f be ae fa 9c be 47 54 fd be 1e 69 17 3e
       -0.1556296 -0.30660003 -0.4947836 0.14786193
000080 c7 51 13 bc b2 db 23 bb 23 39 cf be 62 80 9d 3b
       -0.008991665 -0.0025002775 -0.4047328 0.004806564
000090 e9 43 2b 3c 49 70 29 3e 8c 78 f1 3d a5 4a e8 3d
       0.010453203 0.1654674 0.117905706 0.11342362
0000a0 f2 85 c9 3d 7f 5f 9a bd d8 95 1b 3e f1 53 c9 bd
       0.09840001 -0.07537746 0.1519388 -0.09830464
0000b0 84 b8 ec bd 41 0d ea bd 4f 0e bb bb be 24 1b 3e
       -0.11558631 -0.11428309 -0.005708493 0.15150735
0000c0 71 b1 35 bd 7c 11 bb 3d 52 8c ec 3d bf c2 04 3e
       -0.044358674 0.09134194 0.115502015 0.12964915
0000d0 de b3 26 3e fb cb 99 bc 76 d9 2b 3e 1e 5a 6f bd
       0.16279551 -0.018774023 0.16782174 -0.05843555
0000e0 50 b3 7a 3d 1d 88 da 3c 30 ce 2b bc 8d 03 44 be
       0.061206162 0.026676232 -0.010486171 -0.1914198
0000f0 dd 24 8d 3d e9 48 e8 38 90 69 29 3e d0 2e 3c 3d
       0.06891797 0.00011076203 0.16544175 0.04594308
000100 ac 88 97 3c bc 10 33 be 3e f6 2c be 58 8e 9b 3d
       0.018497787 -0.17486852 -0.16890809 0.07595509
000110 d4 00 72 3e 01 a0 3d 3e 01 64 05 be 2c f9 58 bd
       0.23633128 0.18518068 -0.1302643 -0.052972004
000120 c9 80 b6 3c 43 ee 19 3e 79 36 10 3e 5c 48 26 3b
       0.022278206 0.15032296 0.1408328 0.002537272
000130 38 bf 3c 3e d0 82 ce bd 6e 06 b4 bd ad 4b b7 be
       0.18432319 -0.10083544 -0.08790289 -0.35799924
000140 cb 4e f2 bd 25 4e 40 3e e9 f4 25 3e 02 d2 e0 bd
       -0.11831435 0.1877981 0.16206707 -0.10977556
000150 2b b9 bb ba cc 61 f1 bd 54 9f 5f b9 f1 30 63 3b
       -0.0014322152 -0.117862314 -0.00021326292 0.0034666623
000160 78 47 ce bd 2b 26 74 be cb cb 3b 3e 15 ed 75 3d
       -0.10072225 -0.23842685 0.1833946 0.060040552
000170 f8 c5 92 3b db 02 4f 3e d1 27 8c be e8 73 ee bb
       0.004479166 0.20215933 -0.27374128 -0.0072770007
000180 11 3a 8c 3d 61 3d 2d bd 2d ff f8 3c 94 0c b2 bd
       0.06847013 -0.042294864 0.030395115 -0.08693805
000190 d1 34 0a 3e a3 f1 cf 3c a7 84 b7 3d 11 e8 57 bd
       0.1349671 0.025383776 0.08960848 -0.05271155
0001a0 85 3f b2 be 95 07 dc 3d df f2 67 bd 87 e7 11 be
       -0.34814087 0.10743634 -0.056628104 -0.14248477
0001b0 74 93 51 3b de f1 7b 3d 50 59 b9 bb 96 12 90 3e
       0.0031978758 0.06150996 -0.005656399 0.2813918
0001c0 97 b4 16 3d 70 63 63 3d b3 4e d9 3d 0e ee be be
       0.036793318 0.055514753 0.10610714 -0.37290996
0001d0 05 77 bd 3d 13 43 83 3b c3 31 9a 3c 0e 0e a8 3d
       0.09251217 0.0040057986 0.018822556 0.08205806
0001e0 ab 9c 3d bc 09 d0 e3 3c 0a dd 5e 3d 11 a3 8c 3d
       -0.011572997 0.02780916 0.054410018 0.0686704
0001f0 cb 09 2b bd ef ac c6 bc 6c 26 30 3e 30 e0 db bc
       -0.041757386 -0.024252383 0.17202157 -0.0268403
000200 e9 96 37 be 32 1e 41 be b9 b8 a7 be df ae db 3d
       -0.17928661 -0.18859175 -0.3275812 0.107267134
000210 6a 49 4d 3d 77 e9 dc bb ba 37 1f 3d 80 6e 8c bd
       0.05011884 -0.0067416984 0.038871504 -0.06857014
000220 fa 34 f9 3d 6a 6a 8b 3d b9 7b cf bb 87 27 1a 3e
       0.121683076 0.06807406 -0.0063318876 0.15054141
000230 6d f5 ad bc 8e ef 8e 3e 20 ea b0 3d 92 43 92 3c
       -0.021235192 0.2791714 0.08638406 0.017854486
000240 b9 f8 67 be 2f 9e b7 be 85 59 0b 3d 36 1a fd b8
       -0.22653474 -0.35862872 0.03402092 -0.00012068862
000250 eb fc 7a bc 0e 0d aa bd 82 3a 8e be b5 44 1f be
       -0.015319089 -0.08303271 -0.27779013 -0.15553553
000260 79 b1 a8 3d 88 73 1a 3a 2a 05 3d 3e 36 50 8f bd
       0.08236975 0.0005891849 0.18459001 -0.06997721
000270 8e f9 17 3e e0 f2 6a be 73 08 cd 3d ac 2f b2 bd
       0.14841291 -0.22944212 0.10011377 -0.08700499
000280 82 64 f8 bd f8 42 4c bd 3d 44 ae be 38 01 31 be
       -0.12128545 -0.049868554 -0.34036437 -0.17285621
000290 e6 58 0d bd cb ca 97 bc 2e 48 dc 3c de 36 b5 3c
       -0.03450861 -0.018529316 0.026889887 0.02212089
0002a0 7c 8d 89 bd 9c a8 b0 bc 04 dd f0 3c b6 01 4a bc
       -0.06716439 -0.021564774 0.029402263 -0.0123295095
0002b0 66 59 27 3e f4 da 69 3c d8 5b 43 be e9 fd 34 3d
       0.16342697 0.014273394 -0.19078004 0.04418746
0002c0 33 ea 01 3e 4c db 61 be 26 72 17 3d 62 fe c3 bc
       0.12686996 -0.22056311 0.036974095 -0.02392501
0002d0 b2 a5 c7 3d 63 45 c1 bc 9c 11 f6 bc 3d 3b 55 bd
       0.09748401 -0.023592656 -0.030037694 -0.052058447
0002e0 3c 71 79 3c f4 7a c8 3c 12 b3 f9 bd 9e dd 2d be
       0.015224751 0.024472691 -0.12192358 -0.16979071
0002f0 3e 63 3d be e9 cc 98 bd a7 7f 11 bd 67 de 2a 3d
       -0.18494889 -0.074609585 -0.03552213 0.041716006
000300 fb 4c 05 be d2 ba 33 3c 59 a1 5b be 19 2f c1 bd
       -0.13017647 0.010969834 -0.21448268 -0.09432811
000310 a9 03 4f be 7b 86 20 bc a1 a0 3b be 6f 27 30 be
       -0.2021624 -0.009797688 -0.18322994 -0.17202543
000320 00 47 c6 bd c0 79 ea bc 31 19 55 be 3e 35 e5 bd
       -0.09681511 -0.028622508 -0.20810391 -0.11191796
000330 84 90 51 be 86 e0 19 3c 43 a6 4b bd 5c de 98 3d
       -0.20465285 0.009391909 -0.049719106 0.07464287
000340 55 d5 54 3b e4 f7 ad bd 4d cb e4 bd c0 8c 16 be
       0.0032475789 -0.08494547 -0.11171589 -0.1470213
000350 b0 39 15 bd 50 33 a3 3c f4 ff 0d be 56 9d de bd
       -0.03643197 0.019921929 -0.1386717 -0.10869853
000360 2b 98 44 be 11 1e da bd 1d fa 33 3d a8 a5 1a be
       -0.19198672 -0.10650266 0.0439397 -0.15102255
000370 d6 af fd bc e3 29 95 3c 83 b0 96 3e 0e 7c 25 be
       -0.030967634 0.01820845 0.29431543 -0.16160604
000380 3e d3 d4 be 11 b5 06 be c1 dd a1 bf e4 f0 0b be
       -0.41567415 -0.13155009 -1.2645799 -0.13666111
000390 17 12 45 bc 87 f0 63 3c f5 67 b7 3b 7b d2 6e 3d
       -0.012028239 0.013912327 0.0055971094 0.0583062
0003a0 f9 f0 b6 3d c2 27 be 3d a6 01 a7 3d 06 81 d2 3c
       0.08932681 0.09284927 0.08154611 0.025696289
0003b0 cd a8 0f 3d ea 89 18 be ed 9b 67 bd ea 99 2c 3c
       0.03507309 -0.1489636 -0.056545187 0.010534743
0003c0 97 3e 34 3d 0b 99 7a 3e 06 8f 77 bd 84 4b ed bb
       0.044005003 0.24472444 -0.060439132 -0.007241668
0003d0 15 c0 81 bc e8 e4 2e 3d 45 fb 83 3d b4 bc 1c be
       -0.015838662 0.04269877 0.0644441 -0.1530636
0003e0 da 12 b6 bc c6 ff dd bc 37 5c b6 bc 55 fb 44 3b
       -0.022225786 -0.027099501 -0.022260768 0.0030057032
0003f0 0f c7 0c be 77 75 1c 3d 93 12 1c 3c 32 e8 80 3c
       -0.1374781 0.03819796 0.009525913 0.01573572

state_value.0.bias f4 [64]
000000 df 58 ec 3d 79 8f 89 3d 5e 62 27 be bd 92 df 3c
       0.11540388 0.06716818 -0.16346118 0.02729165
000010 71 bf 12 3e 4f 99 32 be d8 7a ac bd 5d 23 55 3b
       0.14330842 -0.17441295 -0.08421868 0.00325223
000020 9d 67 cf 3d 96 18 e5 bd 94 bc 22 3d 3e e1 84 3b
       0.101271845 -0.1118633 0.039730623 0.0040551713
000030 d3 91 b8 3d d0 cb 46 3e 6e c1 a2 bd d0 43 fa bd
       0.09012189 0.19413686 -0.0794705 -0.122199655
000040 e6 92 15 3d cd fe 07 be 45 7d 2f 3e 29 ea 43 be
       0.036517046 -0.13280793 0.1713763 -0.19132294
000050 95 ad 4b be bb 2c c0 bc ce 47 45 3e 86 97 39 be
       -0.19890435 -0.02345883 0.19265673 -0.18124208
000060 56 f9 5b be 0e 0e c6 3c 7d 12 be 3c 74 ef a2 3c
       -0.21481833 0.024176624 0.023202175 0.01988957
000070 be e3 6e 3e 29 bd de 3d 6a 2f 80 bd eb 53 47 be
       0.23329064 0.10875923 -0.062590435 -0.19465606
000080 94 bd 64 3e 2b b3 87 3e 71 95 e1 bd 55 a4 3b 3d
       0.22337943 0.26503882 -0.11014832 0.045811016
000090 10 a2 0e be 9a cd a0 3d f9 a8 40 bd 67 74 64 be
       -0.1392901 0.078517154 -0.047036145 -0.22310029
0000a0 16 1a 64 be 99 e3 35 bd 84 b8 75 bd 76 06 02 3d
       -0.22275576 -0.044406507 -0.05999042 0.031744443
0000b0 e8 b4 38 3d c7 a2 1b be ef af 78 bd c6 27 36 be
       0.0450944 -0.15198813 -0.06071466 -0.1778861
0000c0 3b 2d 16 be 54 6d b0 bc 9f a0 80 be 75 7b 28 3d
       -0.14665692 -0.021536507 -0.25122544 0.041133363
0000d0 f3 15 f2 bd dd a3 81 be 98 03 05 be c1 d6 b1 3c
       -0.11820593 -0.2532033 -0.12989652 0.021708848
0000e0 ae 63 65 ba 02 b4 ba 3d cd ac 7b be d5 f2 a5 3c
       -0.000875051 0.09116365 -0.24577637 0.020257393
0000f0 ba b0 5f 3d 5d 31 f0 3c 7b c4 91 3d 09 48 71 bd
       0.0546119 0.029320413 0.07117554 -0.05890659

state_value.2.weight f4 [1, 64]
000000 38 a8 0e be c5 74 aa 3d d1 5b 47 3d fc b9 16 3e
       -0.13931358 0.08323053 0.048671547 0.14719385
000010 f1 a9 ea 3c 01 40 24 bc 51 d5 00 3f 92 af 34 bd
       0.028645488 -0.010025025 0.50325495 -0.04411275
000020 21 c5 95 3d 3e ec e9 3c 88 82 c0 3e c0 6d f1 bc
       0.0731299 0.028555032 0.37599587 -0.029471278
000030 77 74 99 bd ce f7 18 3e 8b 1f dd be 1b 16 b8 bc
       -0.07492917 0.1493828 -0.43188128 -0.022471478
000040 af a1 a1 bd 7a 37 f9 bc 63 59 92 3d ca 0c 0a 3d
       -0.07892167 -0.030421961 0.071459554 0.033703603
000050 68 b3 0c 3d 2c c0 72 bd 1c 78 3b 3e c7 e3 e6 bc
       0.034350783 -0.0592653 0.18307537 -0.028184785
000060 f0 0d 57 bd 91 47 2a bd 4d b5 75 3d 23 61 2c 3e
       -0.052503526 -0.041572157 0.059987355 0.1683393
000070 8a bc b4 3d 85 97 be 3e ac 4a 12 3f 06 80 b7 bd
       0.088250235 0.37224975 0.5714519 -0.089599654
000080 81 a5 10 3d d1 df 10 3e 2f 28 43 3d 2f 6c d3 3d
       0.035314087 0.14147879 0.047645744 0.10323369
000090 2f fb 19 bd 21 36 b1 3d 6e e9 10 3e 5b 1a 61 bd
       -0.037593063 0.086529024 0.14151546 -0.054956775
0000a0 35 4b 22 bd cb b3 5e be 11 c2 2e 3d 3a 4a 50 bd
       -0.039622504 -0.21748273 0.042665545 -0.050852038
0000b0 07 ec 46 3d f2 94 28 bd be c8 a4 bc 86 40 8f 3d
       0.048564937 -0.04115767 -0.020115253 0.06994729
0000c0 ff 63 d2 3d cf 9d ec bc ae 5a d5 bd d7 fe ad 3e
       0.10272979 -0.028883843 -0.104176864 0.3398349
0000d0 cc ce 49 bb a3 f0 8f be f6 8e 37 3d d0 bd 1d 3f
       -0.0030793427 -0.2811328 0.044814073 0.61617756
0000e0 ee fa c1 bd f5 ef f8 3d 2f b1 46 bd 20 d9 27 3d
       -0.09471689 0.12155143 -0.04850882 0.04097855
0000f0 37 7a c3 3d e9 1a bb 3d 3a d0 59 be 8f d6 31 be
       0.09544795 0.09135992 -0.21270838 -0.17367004

advantage.0.weight f4 [64, 37]
000000 b2 17 b7 3c e5 a0 26 3d 4c 15 6d 3d 43 6c 85 3d
       0.022350166 0.040680785 0.05788164 0.0651479
000010 cf 35 3a 3d 12 5d 4a be b6 0c f9 3d 43 94 99 3d
       0.045461472 -0.19762066 0.121606275 0.07498982
000020 4c 4f 0c 3e 67 2a 37 3e 52 6a e8 3c cd 5c 7a 3d
       0.13702124 0.17887269 0.02837101 0.061123658
000030 06 28 ba 3d 24 92 05 3e c3 aa 64 3d d4 db 0f ba
       0.09089665 0.1304403 0.055826914 -0.0005487774
000040 52 73 b8 3c 80 2a 2e 3d 21 b7 50 bc 3b d0 1d bd
       0.022515927 0.042521 -0.012738974 -0.038528662
000050 41 ba 09 be f7 b8 b8 bc 0f 48 0b bd c9 36 b7 3c
       -0.13449956 -0.022549136 -0.034004267 0.02236499
000060 e4 16 e9 3d a9 70 17 be 93 91 a8 bd 83 b7 3a 3d
       0.11381319 -0.1478907 -0.08230891 0.045585167
000070 d7 1d 24 3e 27 98 3a 3e bc d0 80 3e c2 cb cc be
       0.16027008 0.18222104 0.25159252 -0.39999205
000080 f1 c4 d1 be 50 20 df be 13 eb de bf b7 5e 85 3b
       -0.40970567 -0.4357934 -1.7415489 0.004070129
000090 b8 81 4c ba 27 b7 0f 3d ac 54 ae 3c 15 44 a0 3d
       -0.0007801312 0.035086777 0.02128061 0.078254856
0000a0 06 a0 38 3d b1 c9 00 3c 4f ef a3 bc 2a 42 b0 3d
       0.045074485 0.007860587 -0.020011572 0.0860637
0000b0 45 6b 3d be 71 d2 86 be 9a 86 cd be 60 dd d2 bd
       -0.18497951 -0.2633243 -0.40141755 -0.1029613
0000c0 6f b5 0e bb 69 f7 95 3b 3a 52 34 bd 64 2e 2d bc
       -0.0021775623 0.0045766127 -0.04402373 -0.010570142
0000d0 a8 ea 25 3d 3a 2f c1 3d 30 04 ae 3c d8 7f a1 3c
       0.04050699 0.09432836 0.021242231 0.019714281
0000e0 d5 ec bd bc 93 a5 d4 bd 24 4b be 3d 6d 56 5e 3e
       -0.02318422 -0.10383143 0.09291676 0.21712656
0000f0 02 24 91 3e 5f 88 08 3c a9 2c 7f 3e 87 b6 bd be
       0.28347784 0.008333295 0.2491938 -0.3705332
000100 e1 79 e9 be a8 42 4d be eb 98 a8 bf d8 4c 28 be
       -0.456008 -0.20044959 -1.3171667 -0.16435564
000110 3b d8 bf 3d 5e 34 20 3e 73 53 73 3e 17 03 13 3e
       0.093674146 0.15644976 0.23762302 0.14356647
000120 a6 95 2a 3d f2 9b d1 bb 94 9c 83 3d 7c 2b c4 3d
       0.041646622 -0.006396764 0.06426349 0.095786065
000130 e4 fb 1b be 56 d3 82 3d e6 e3 35 3e 9b 6e 14 be
       -0.15232807 0.063879654 0.17762718 -0.14495318
000140 c7 45 70 3d b5 a6 66 3d af 37 27 be aa e2 13 be
       0.058660295 0.056311328 -0.16329835 -0.14441934
000150 46 93 1e be ae 3a 06 3e d7 89 c4 3c ad 72 f4 bd
       -0.15485868 0.13108322 0.023991508 -0.11935935
000160 77 0d b2 bc 91 f9 17 bd 46 43 58 ba 53 f1 1e 3e
       -0.021734936 -0.03710324 -0.00082497706 0.15521745
000170 21 23 9a 3d a5 e2 41 3d 79 bc 18 3d aa 0b 24 be
       0.075262316 0.047335286 0.037289117 -0.16020074
000180 1a 67 36 be 27 a3 a8 be a6 b6 8c be ec d4 12 3e
       -0.17812768 -0.32936975 -0.274831 0.14339036
000190 18 b4 47 3d 0c 3d 84 bd 97 a1 b6 3d 96 bf a5 3c
       0.048755735 -0.06456956 0.089175396 0.020232957
0001a0 2b 40 70 be be 22 ef bc e3 02 ad bd 91 ef f9 bd
       -0.23461978 -0.029191371 -0.08447816 -0.12203897
0001b0 80 03 0c be d0 ce cf 3b 64 fb 43 3b 18 02 90 bd
       -0.1367321 0.0063417926 0.002990448 -0.07031649
0001c0 59 33 1c bd da d9 75 bd 5d 4f 85 bd b9 2a 34 bd
       -0.038134906 -0.060022213 -0.06509278 -0.043986056
0001d0 50 41 17 3e bd d1 ac be 14 39 af be e7 01 dd be
       0.14771008 -0.33753768 -0.34223235 -0.43165514
0001e0 b7 63 b1 bf 9c f6 1c 3d 07 87 10 3d 36 0b 1e 3d
       -1.3858556 0.038321123 0.035285022 0.03858491
0001f0 9a 62 41 3d 74 10 99 bc cf 9c 29 bd d6 78 7d 3d
       0.047213174 -0.018684603 -0.04140931 0.061882816
000200 51 c0 04 bd 14 51 1b be f5 6f 57 be 2e 3b 8e bd
       -0.03240997 -0.15167648 -0.21038802 -0.069448814
000210 a5 29 c2 bb 2c ed 43 bc 89 5f 93 3d c5 22 be 3d
       -0.0059253746 -0.011958402 0.07195956 0.092839755
000220 e1 1d ba be 78 93 1b 3e 8d 46 6d 3e 40 09 8d 3e
       -0.3635092 0.15192974 0.23171444 0.2754612
000230 5e 33 05 3d 1f 27 24 be d5 53 b5 3d a0 fb 86 3d
       0.03251969 -0.16030549 0.0885388 0.065909624
000240 c7 3f 02 3e 13 6b 04 3e ea fc af bc 82 e5 a5 bb
       0.12719642 0.1293147 -0.021482904 -0.00506276
000250 7a 48 f7 bd 5c 64 1e 3e 52 70 b8 3d 5f d3 4c 3d
       -0.12074371 0.15467972 0.090057984 0.050006267
000260 46 40 8f be 60 1f ed 3d 3d 01 8f 3d 8e d0 8f bd
       -0.27978724 0.1157825 0.06982658 -0.070222005
000270 63 fe 37 3d 7b fd 9b bd 96 c7 26 3d 4a 60 15 be
       0.044920336 -0.07616707 0.040717684 -0.14587513
000280 7a aa 20 3b 69 48 b2 bc 1c 77 19 be 08 c7 28 be
       0.0024515674 -0.021763043 -0.14986843 -0.16482174
000290 6f e5 a0 3d 44 04 ef 3d 8b c1 bc bc cd 3a b9 be
       0.07856261 0.116707355 -0.023041507 -0.36177674
0002a0 e9 e2 9f 3d 28 03 49 bc d2 93 54 bd a4 45 56 bc
       0.078069516 -0.012268819 -0.051898785 -0.013078127
0002b0 07 92 bf bc 5f 9a 87 bb 7e 6a 0b 3d a2 66 55 3c
       -0.023385061 -0.0041382755 0.034037106 0.013024958
0002c0 54 ea 92 bc c6 be c1 bd 18 dc ac 3d 25 6f d2 bc
       -0.017934002 -0.09460215 0.08440417 -0.025687763
0002d0 e8 6f 4f 3d 25 7e a3 3c 41 13 ea 3d 6b 83 66 3d
       0.05064383 0.019957611 0.11429454 0.056277674
0002e0 d0 2d 98 3c 61 57 a2 bd ba 5b d4 bc 69 a9 05 bd
       0.018576533 -0.079268225 -0.025922645 -0.032632265
0002f0 d3 a4 9b bd cb d7 b1 bd 93 12 37 3e 6a 5d a3 bd
       -0.07599797 -0.08683737 0.17878179 -0.07976802
000300 d6 33 9e bd 2a 57 a0 be a8 5e d3 be 5a dd 9d bd
       -0.07724731 -0.313165 -0.41283154 -0.07708235
000310 41 e8 5b bd 05 20 c6 3d f9 f7 0b bd e6 f5 0f bd
       -0.05368829 0.09674076 -0.034172032 -0.035146616
000320 42 0a 17 be 14 9d d6 bc 1b e2 95 3d 42 96 97 3e
       -0.14750007 -0.026197948 0.07318517 0.29606825
000330 6c dc c1 3e 9a 61 93 bc f0 d6 be bd a2 c5 b1 bd
       0.3786348 -0.017990876 -0.0931834 -0.086802736
000340 76 ed 3a bd b8 b2 9f 3d c6 05 84 3e a8 26 ee 3c
       -0.045636617 0.0779776 0.25785655 0.029071167
000350 28 ca db bd 19 55 23 be e3 62 49 bf 96 bb 0d be
       -0.107319176 -0.15950431 -0.78666514 -0.1384109
000360 4c 7e 40 3a 66 f7 ba bd 9f fb b5 be ac 9a d2 be
       0.00073430385 -0.09129219 -0.35543534 -0.4113363
000370 a6 39 62 bd f9 f8 23 bb 86 d3 97 bd c6 b2 4a 3c
       -0.05523076 -0.0025020225 -0.07413392 0.0123717245
000380 a8 da d2 bd 0d f7 14 bd e9 7c af 3d ee 2a de bd
       -0.102956116 -0.03636842 0.085687466 -0.10848032
000390 6d 8c 36 3e e3 e1 63 be 36 70 95 be 25 a6 2a be
       0.17827006 -0.22254138 -0.29187173 -0.16664942
0003a0 d0 9a 90 bb 12 96 1c be 9a 41 00 bd 71 1d fe 3c
       -0.0044129863 -0.15291622 -0.031312563 0.031019898
0003b0 5c 0b e9 3c b4 e9 cc bd 51 26 88 be 5a fe 28 be
       0.0284478 -0.10005513 -0.26591733 -0.16503277
0003c0 58 38 05 be 3f 6b 0d be b1 b9 22 3d df e9 e5 bc
       -0.13009775 -0.13810442 0.03972787 -0.02806562
0003d0 f2 33 d0 bd 0e 0a 21 be aa bd ed bd 5a c4 41 3d
       -0.10166158 -0.15726492 -0.11608441 0.047306396
0003e0 b5 53 5e be 06 27 bb bc 7d 4f db bc 19 9c 05 3e
       -0.21711619 -0.022845756 -0.026771301 0.13047828
0003f0 fa 6c 19 bc d3 20 08 3d 04 f6 ff bd ea 16 b0 3d
       -0.009364361 0.03323443 -0.12498096 0.085981205

advantage.0.bias f4 [64]
000000 b1 47 dc bd 99 6f 84 bd 82 9d 0b bc 33 48 9f 3d
       -0.107558616 -0.06466598 -0.0085214395 0.07777443
000010 40 cd 5e bc f2 95 db bb 98 b7 89 3c a0 b0 58 3d
       -0.01359874 -0.0067012245 0.016811177 0.052902818
000020 8e 35 af 3d a2 ea c0 3c e3 c6 f1 3d d4 d3 4c 3d
       0.085551366 0.023549382 0.11805513 0.050006703
000030 3b 46 1d be 73 58 39 be 6d 43 38 3d ce 5a 79 bd
       -0.15358822 -0.18100147 0.044986177 -0.060877614
000040 1c 4c 1d be 20 b6 d2 bd 09 c2 40 be ae d4 2e 3d
       -0.15361065 -0.10288644 -0.18824019 0.042683296
000050 d2 70 b5 3d 5d 95 13 be 0d 4a d4 bc 6f 3b d0 bd
       0.088594094 -0.14412446 -0.025914216 -0.10167586
000060 4d 7a e1 3d d7 b6 53 be c0 57 2c be ea 97 14 be
       0.11009655 -0.20675217 -0.16830349 -0.14511076
000070 a6 5b 5f bd 25 fa 32 be 85 c2 cb 3d 3d e3 97 3c
       -0.054530762 -0.17478235 0.09949211 0.018540973
000080 b9 9c cf bd d5 7f c5 bd 6d f3 c2 bd 8c 9b 88 bb
       -0.10137314 -0.09643523 -0.09519086 -0.0041689333
000090 ad 42 1e be d2 af 4a bc 25 8b 8d bd 54 37 1a be
       -0.15455122 -0.01237102 -0.06911305 -0.15060169
0000a0 eb 8b 20 be ee a5 de bd 98 c9 12 3c be 02 06 3d
       -0.15678374 -0.10871492 0.0089591965 0.03271746
0000b0 61 20 57 3c c5 1f 0e be fc 11 5b be df 10 58 bd
       0.013130278 -0.13879307 -0.21393579 -0.052750465
0000c0 39 df 13 be c7 29 82 be 36 d3 77 be 4b 6d a0 bd
       -0.14440621 -0.254225 -0.24201664 -0.07833346
0000d0 84 40 1f be 6b a5 a6 3c 45 6d 9a 3c 17 53 d5 3c
       -0.15551955 0.02034255 0.018850932 0.026040597
0000e0 d3 e8 58 be 9c 99 b6 3d 93 03 82 3d 24 c1 5b 3d
       -0.21182565 0.089160174 0.06348338 0.05365099
0000f0 e7 00 cf bd f2 e5 cf bb 7b f6 83 be 86 01 bd 3b
       -0.10107594 -0.0063445503 -0.25773987 0.005768004

advantage.2.weight f4 [4, 64]
000000 7a 2d 25 3f 03 a7 05 3d 04 1b ea bd f6 20 aa 3e
       0.64522517 0.032629978 -0.11430934 0.33228272
000010 c2 a2 e8 bc 2d f7 18 be d2 05 63 bc 7f c3 ac 3d
       -0.028397921 -0.1493804 -0.013856368 0.084357254
000020 ce 71 a5 bd be 28 43 3d a6 61 91 be 7c f9 84 3d
       -0.08078347 0.047646277 -0.28394812 0.06492898
000030 22 66 46 3e 76 7f e9 3d 79 36 ba 3e d7 3a 60 bb
       0.19374898 0.11401264 0.36369684 -0.0034214759
000040 6e 36 16 3d 7f e8 af 3e 7b 56 14 be 5e f4 58 3e
       0.036673002 0.34357068 -0.14486115 0.21186969
000050 98 df f6 bd b6 a7 09 3f 7d 43 2d 3f f5 d6 bb ba
       -0.12054366 0.5377153 0.67681104 -0.001433103
000060 da 57 58 3d 0d 2c bf bd 1f 4c 19 be 64 c2 32 3e
       0.052818157 -0.09334574 -0.14970444 0.17456967
000070 7c 01 10 3c 03 68 da bc e2 d9 a6 bd 83 80 96 3d
       0.008789416 -0.026660925 -0.081470266 0.073487304
000080 24 bb 15 3e 5b ca 51 3c e1 51 71 3c 13 4a 40 3c
       0.1462217 0.012804593 0.014728994 0.011736411
000090 25 19 9b 3d 74 e7 b8 3c 5a cd 3a bd 75 a1 21 bd
       0.07573155 0.022571303 -0.045605995 -0.039460618
0000a0 08 7e fc 3c ef 5c ab be 18 e9 8d 3e 40 65 1e 3e
       0.030821815 -0.3346934 0.277169 0.15468311
0000b0 cf 7d a1 be ed 88 66 be 2b cd 4a 3d 50 a8 4b 3d
       -0.31541297 -0.2251317 0.04951207 0.049721062
0000c0 d9 84 22 3d b3 4b 21 bd 55 39 ea 3b c0 8e 97 bd
       0.039677475 -0.039378833 0.007147948 -0.07400274
0000d0 96 71 32 3f 12 3b ce 3c 7e 7d ae 3c ed e2 a5 bd
       0.6970457 0.025174651 0.021300074 -0.08099923
0000e0 c6 37 50 bd 91 f7 f4 3a 9b 13 f8 3d 6b 6b 92 be
       -0.05083444 0.0018689503 0.121131144 -0.28597578
0000f0 c1 6b e2 3d e7 3e 22 3d d9 5f 50 bd 2d 09 2f bd
       0.11055709 0.03961077 -0.050872657 -0.04273336
000100 df 6f be 3e 5d e5 d4 3d c8 4d 8f bd 6f 40 aa 3e
       0.37194726 0.1039531 -0.069972575 0.33252284
000110 c5 a0 0b bd 8c 5f 83 bd ac ef 04 bd 6a b7 20 3d
       -0.03408887 -0.064147085 -0.03245513 0.039237417
000120 90 9a e7 bd 11 61 05 3e 6c 66 6a be 28 c1 e8 bc
       -0.11308777 0.13025309 -0.22890633 -0.028412417
000130 9a 38 cc 3e 74 a4 69 3d f1 8a 5e 3e 53 2e b2 3c
       0.39886934 0.0570416 0.2173269 0.021750605
000140 0e c1 0c 3d 1f a1 98 3e 56 e9 a0 bc 80 d7 f4 3e
       0.0343638 0.29810426 -0.019642513 0.47820663
000150 5f e6 7b 3d 9a d8 c4 3e de 0b 20 3f 4d b7 cb be
       0.061498996 0.38446504 0.6251811 -0.39788285
000160 78 f0 43 3c 42 27 00 3d 70 68 fa bd cc 76 dd 3d
       0.011959188 0.03128744 -0.12226951 0.10813674
000170 3a 4b 51 be 5a f6 2a 3a 39 d3 a3 bd b5 c5 97 3d
       -0.20438853 0.00065216946 -0.07999272 0.074107565
000180 6f 40 e2 3d 14 ee 8a bd 50 db 4c bd 45 ce 0a 3d
       0.11047446 -0.06783691 -0.05001384 0.03388812
000190 ed 0d 8d bc e9 7f 01 3e da 31 90 bd 9c 93 b4 b6
       -0.017218554 0.1264645 -0.070407584 -5.381602e-06
0001a0 ed 4f 90 bd b8 76 05 be 87 ce f4 3d 46 dc 12 3d
       -0.07046495 -0.13033569 0.119534545 0.0358546
0001b0 f8 d2 d9 bd 33 f0 64 be 1a 91 58 3e ec f7 f3 3d
       -0.10635942 -0.22357254 0.21149102 0.11912522
0001c0 f9 16 8a bc fc d0 8b bd 06 c7 f8 3d d5 83 03 bd
       -0.016856657 -0.0682697 0.12147336 -0.032108147
0001d0 9f 37 1f 3f c7 7d b2 3d c3 d1 53 bc 56 55 da bc
       0.62194246 0.087153964 -0.012928429 -0.02665202
0001e0 0e 10 19 bd f3 3e 87 bd 14 44 2a 3e 96 63 13 3e
       -0.037368827 -0.066038035 0.16627532 0.14393458
0001f0 8f 99 86 be 25 46 08 3e 1b c2 64 3d 59 b5 1e 3d
       -0.2628903 0.13308008 0.055849176 0.038747165
000200 52 04 c7 3e 7f cb 95 3e 04 04 88 3c dd 2c 8d 3e
       0.38870484 0.29256818 0.016603477 0.2757329
000210 a1 9a b6 bc ec d8 05 be 03 03 ff bc ad 41 33 be
       -0.02229053 -0.1307103 -0.031129366 -0.17505522
000220 4b 0b 55 be 85 62 1b 3e 42 55 d8 bd 29 9b 1b bd
       -0.20805089 0.15174301 -0.10563137 -0.03798977
000230 c1 38 1c be 65 e1 e0 bd 8e 89 13 be 7b 9c 80 3d
       -0.15256025 -0.109804906 -0.14407942 0.06279846
000240 da da aa bd 99 bf b6 3e fc 54 41 bd a7 33 5d 3f
       -0.08342524 0.35693052 -0.047200188 0.8640694
000250 76 d9 4d 3d b1 b7 7b 3e 8c 5c 75 3e 22 77 00 3e
       0.050256215 0.24581791 0.23961085 0.12545446
000260 5c 1e 91 3c 5e 4b 82 ba 41 3b b2 bd 74 20 a0 b9
       0.017714672 -0.0009940674 -0.08702708 -0.00030541758
000270 d2 ef 23 be 4e 0f 04 be 27 2a ea bd f8 3c b3 3c
       -0.16009453 -0.12896463 -0.11433821 0.021879658
000280 b7 e7 17 3e b5 7f d3 3e 2e 62 e4 bc da d7 ce 3d
       0.14834486 0.4130837 -0.027878847 0.10099764
000290 bd c1 55 3d 1e e9 12 3e 8b 6b b9 3d 4c 6f b8 bd
       0.052186716 0.1434674 0.09053715 -0.09005603
0002a0 88 c4 66 be b4 09 c4 bd a8 f6 8a bd 49 97 66 bc
       -0.22535908 -0.09572163 -0.06785327 -0.014074155
0002b0 fd 62 14 be b9 e4 ae bc bf e5 85 bd 03 b6 8c bd
       -0.14490886 -0.021349298 -0.06537961 -0.068706535
0002c0 f1 57 6f 3d e0 9c 10 bc c4 c3 0c be f2 4e c1 bd
       0.058433477 -0.008826464 -0.13746554 -0.09438886
0002d0 4a 95 1d 3f fe 42 ee 3e da f7 5d bd e4 ee 44 be
       0.6155592 0.46535486 -0.054191448 -0.19231755
0002e0 d6 6f 11 3d a9 3d 00 3b 7c 82 42 3e bc 25 d1 bd
       0.035507046 0.0019568002 0.18995088 -0.102122754
0002f0 50 f5 1d 3e 57 fe b4 bc 5e e3 09 be e0 2d 91 3d
       0.1542561 -0.022093935 -0.1346564 0.07088828
000300 45 0b 7d 3e c9 cc 00 3e 01 47 53 3c f2 d1 ba 3e
       0.2471133 0.1257812 0.012895347 0.364883
000310 bb 73 d0 bd 32 32 0d 3e c3 67 c3 bd 73 4b 47 be
       -0.10178324 0.13788679 -0.09541275 -0.19462375
000320 9f ab 75 bd 54 8f a8 bc d1 e5 66 be ba 0e b8 3d
       -0.059978124 -0.020576157 -0.22548606 0.08987184
000330 d4 20 43 3f e9 6a e8 3d 24 ad e9 bd aa 4e 18 3d
       0.76221967 0.113485165 -0.11409977 0.037184395
000340 c8 16 16 be fe 31 2b 3f af f7 1c bc 79 93 57 be
       -0.14657128 0.6687316 -0.009580537 -0.2105235
000350 55 72 8e 3d 1d 64 d3 3e f6 aa d2 3e 8c d9 a9 3c
       0.06955401 0.41287318 0.41146058 0.020733617
000360 db 2d 0d bd c1 96 26 bc 07 00 c6 be e5 3c 04 3e
       -0.03446756 -0.0101677785 -0.38671896 0.12913854
000370 e6 fb 4e bd 6f 32 0a bd 9d aa 94 be ab d3 05 3e
       -0.050533198 -0.033739503 -0.29036418 0.13069026
000380 f1 21 f2 3e b6 6b 61 bc c3 ca 95 bd 15 b4 76 3d
       0.4729152 -0.01375859 -0.07314064 0.060230333
000390 8a 72 93 3d 1b 4e a1 bd 07 09 59 3c 34 b2 cf bc
       0.07199581 -0.078762256 0.013246781 -0.025353529
0003a0 19 88 2d bc f1 9e 38 3e 55 e9 a6 3e b8 10 16 bd
       -0.01059153 0.18029381 0.32599893 -0.036637038
0003b0 b6 5f 2a be 3f f0 35 3d 0d 79 d8 bd c4 15 9c 3e
       -0.16638073 0.04441857 -0.105699636 0.30485356
0003c0 05 3b dd bd 7b b5 70 bc 01 7b fd ba 25 0d 70 bd
       -0.10802273 -0.014691706 -0.0019339026 -0.058606286
0003d0 8c b1 76 3e 4c 44 64 3d 41 a4 0d bd 63 93 b3 bc
       0.24091166 0.055729195 -0.034580473 -0.021920865
0003e0 4a 78 e5 3c 92 09 4d bc f3 72 29 3f 7d 2b 8d 3d
       0.02801146 -0.012514489 0.66191024 0.0689306
0003f0 58 57 50 3e 94 e4 d9 3d e7 aa c9 3c a9 06 0e be
       0.20345819 0.10639301 0.024617625 -0.13869728

advantage.2.bias f4 [4]
000000 45 b3 4d 3d 37 00 8b bc e0 e9 c6 3c a2 97 a8 3c
       0.050219793 -0.016967876 0.024281442 0.020580117
